lh_fmri loaded...
lh_fmri.shape:  (100, 19004)
lh_fmri[0].shape:  (19004,) 

rh_fmri loaded...
rh_fmri.shape:  (100, 20544)
rh_fmri[0].shape:  (20544,) 


X_data.shape:  (100, 425, 425, 3)
y_data.shape:  (100, 39548)
Num GPUs Available:  0
Num CPUs Available:  1
Model: "sequential"
_________________________________________________________________
 Layer (type)                Output Shape              Param #   
=================================================================
 conv2d (Conv2D)             (None, 425, 425, 4)       304       
                                                                 
 max_pooling2d (MaxPooling2D  (None, 212, 212, 4)      0         
 )                                                               
                                                                 
 conv2d_1 (Conv2D)           (None, 212, 212, 4)       404       
                                                                 
 max_pooling2d_1 (MaxPooling  (None, 106, 106, 4)      0         
 2D)                                                             
                                                                 
 conv2d_2 (Conv2D)           (None, 106, 106, 8)       808       
                                                                 
 max_pooling2d_2 (MaxPooling  (None, 53, 53, 8)        0         
 2D)                                                             
                                                                 
 conv2d_3 (Conv2D)           (None, 53, 53, 8)         1608      
                                                                 
 max_pooling2d_3 (MaxPooling  (None, 26, 26, 8)        0         
 2D)                                                             
                                                                 
 flatten (Flatten)           (None, 5408)              0         
                                                                 
 dense (Dense)               (None, 512)               2769408   
                                                                 
 dense_1 (Dense)             (None, 39548)             20288124  
                                                                 
=================================================================
Total params: 23,060,656
Trainable params: 23,060,656
Non-trainable params: 0
_________________________________________________________________
Epoch 1/200
1/2 [==============>...............] - ETA: 3s - loss: 11.6014 - MSE: 11.6014 - MAE: 2.6414 - MAPE: 4819.513
…
