…
Epochs:  20
Batch Size:  8
Learning Rate:  5e-07
Patience:  3
Model Path:  ../dataout/models/CNN/subj01
############################### 

From create_train_test_split():
X_data.shape:  (9841, 425, 425, 3)
y_data.shape:  (9841, 39548)
     Data shape : 
   Input Shape:  (425, 425, 3)
   Output Dim:  (2561,)


Num GPUs Available:  0
Num CPUs Available:  1
Model: "sequential"
_________________________________________________________________
 Layer (type)                Output Shape              Param #   
=================================================================
 conv2d (Conv2D)             (None, 425, 425, 4)       304       
                                                                 
 max_pooling2d (MaxPooling2D  (None, 141, 141, 4)      0         
 )                                                               
                                                                 
 conv2d_1 (Conv2D)           (None, 141, 141, 4)       148       
                                                                 
 max_pooling2d_1 (MaxPooling  (None, 70, 70, 4)        0         
 2D)                                                             
                                                                 
 conv2d_2 (Conv2D)           (None, 70, 70, 8)         296       
                                                                 
 max_pooling2d_2 (MaxPooling  (None, 35, 35, 8)        0         
 2D)                                                             
                                                                 
 conv2d_3 (Conv2D)           (None, 35, 35, 16)        1168      
                                                                 
 max_pooling2d_3 (MaxPooling  (None, 17, 17, 16)       0         
 2D)                                                             
                                                                 
 conv2d_4 (Conv2D)           (None, 17, 17, 32)        4640      
                                                                 
 max_pooling2d_4 (MaxPooling  (None, 8, 8, 32)         0         
 2D)                                                             
                                                                 
 flatten (Flatten)           (None, 2048)              0         
                                                                 
 dense (Dense)               (None, 512)               1049088   
                                                                 
 dense_1 (Dense)             (None, 2561)              1313793   
                                                                 
=================================================================
Total params: 2,369,437
Trainable params: 2,369,437
Non-trainable params: 0
_________________________________________________________________
Epoch 1/20
  1/788 [..............................] - ETA: 11:32 - loss: 17.9712 - MSE: 17.9712 - MAE: 2.5302 - MAPE: 716
…
