…
############################### 

 MODEL PARAMETERS: 

Subject:  subj01
Test:  False
Epochs:  20
Batch Size:  32
Learning Rate:  1e-06
Patience:  3
Model Path:  ../dataout/models/CNN/subj01
############################### 

X_data.shape:  (9841, 425, 425, 3)
y_data.shape:  (9841, 39548)
Num GPUs Available:  0
Num CPUs Available:  1
Model: "sequential"
_________________________________________________________________
 Layer (type)                Output Shape              Param #   
=================================================================
 conv2d (Conv2D)             (None, 425, 425, 4)       304       
                                                                 
 max_pooling2d (MaxPooling2D  (None, 212, 212, 4)      0         
 )                                                               
                                                                 
 conv2d_1 (Conv2D)           (None, 212, 212, 4)       404       
                                                                 
 max_pooling2d_1 (MaxPooling  (None, 106, 106, 4)      0         
 2D)                                                             
                                                                 
 conv2d_2 (Conv2D)           (None, 106, 106, 8)       808       
                                                                 
 max_pooling2d_2 (MaxPooling  (None, 53, 53, 8)        0         
 2D)                                                             
                                                                 
 conv2d_3 (Conv2D)           (None, 53, 53, 8)         1608      
                                                                 
 max_pooling2d_3 (MaxPooling  (None, 26, 26, 8)        0         
 2D)                                                             
                                                                 
 flatten (Flatten)           (None, 5408)              0         
                                                                 
 dense (Dense)               (None, 512)               2769408   
                                                                 
 dense_1 (Dense)             (None, 39548)             20288124  
                                                                 
=================================================================
Total params: 23,060,656
Trainable params: 23,060,656
Non-trainable params: 0
_________________________________________________________________
Epoch 1/20

  1/197 [..............................] - ETA: 8:31 - loss: 182.3135 - MSE: 182.3135 - MAE: 10.6692 - MAPE: 18604.3477
…
